[INFO: train_argo.py:  154]: There are 3217.84375 iterations per epoch
[INFO: train_argo.py:  178]: Here is the generator:
[INFO: train_argo.py:  179]: TrajectoryGenerator(
  (encoder): Encoder(
    (encoder): LSTM(16, 32)
    (spatial_embedding): Linear(in_features=2, out_features=16, bias=True)
  )
  (decoder): Decoder(
    (decoder): LSTM(16, 32)
    (spatial_embedding): Linear(in_features=2, out_features=16, bias=True)
    (hidden2pos): Linear(in_features=32, out_features=2, bias=True)
  )
  (pool_net): PoolHiddenNet(
    (spatial_embedding): Linear(in_features=2, out_features=16, bias=True)
    (mlp_pre_pool): Sequential(
      (0): Linear(in_features=48, out_features=512, bias=True)
      (1): ReLU()
      (2): Linear(in_features=512, out_features=32, bias=True)
      (3): ReLU()
    )
  )
  (mlp_decoder_context): Sequential(
    (0): Linear(in_features=64, out_features=64, bias=True)
    (1): ReLU()
    (2): Linear(in_features=64, out_features=24, bias=True)
    (3): ReLU()
  )
)
[INFO: train_argo.py:  194]: Here is the discriminator:
[INFO: train_argo.py:  195]: TrajectoryDiscriminator(
  (encoder): Encoder(
    (encoder): LSTM(16, 64)
    (spatial_embedding): Linear(in_features=2, out_features=16, bias=True)
  )
  (real_classifier): Sequential(
    (0): Linear(in_features=64, out_features=64, bias=True)
    (1): ReLU()
    (2): Linear(in_features=64, out_features=1, bias=True)
    (3): ReLU()
  )
)
[INFO: train_argo.py:  261]: Starting epoch 1
[INFO: train_argo.py:  302]: t = 1 / 1608921
[INFO: train_argo.py:  304]:   [D] D_data_loss: 1.345
[INFO: train_argo.py:  304]:   [D] D_total_loss: 1.345
[INFO: train_argo.py:  307]:   [G] G_discriminator_loss: 0.693
[INFO: train_argo.py:  307]:   [G] G_l2_loss_rel: 3.472
[INFO: train_argo.py:  307]:   [G] G_total_loss: 4.165
…
